proprietary/odm/firmware/water_check.tflite (tflite, 12384 bytes, 19 tensors)

Const_11 f4 [16]
0	0x3ede31e6	0.43397444
1	0xbf5f8059	-0.8730522
2	0x3e068ece	0.13140413
3	0xbfa0d528	-1.256505
4	0x3f4f1f4e	0.8090714
5	0x3e932013	0.28735408
6	0x3fb2b308	1.3960886
7	0x3eb84686	0.35991305
8	0xbea7b5ce	-0.32755893
9	0xbec90f6b	-0.39269575
10	0xbfb991f3	-1.4497665
11	0x3fbd03fc	1.4766841
12	0x3fab8cd1	1.3402349
13	0x4000865b	2.0082004
14	0xbfebd3a1	-1.8423959
15	0xc024e0bb	-2.5762165

Const_15 f4 [16]
0	0x3f933dc7	1.1503228
1	0xbfa220dd	-1.2666279
2	0xbf0ae269	-0.54251724
3	0x3eec45bc	0.46146953
4	0x3ec14978	0.37751365
5	0x3e3f0c98	0.18657148
6	0x3f87ab0b	1.0599073
7	0xbe91c6d8	-0.28472018
8	0x3f7c5a18	0.9857497
9	0x3f54578b	0.8294608
10	0xbf470ed3	-0.77756995
11	0x3f3932f9	0.72343403
12	0x3e8d7f7d	0.27636328
13	0xbf5556b8	-0.8333545
14	0x3e7acef8	0.24493015
15	0x3ee88330	0.45412588

Const_19 f4 [3]
0	0x40bedc18	5.964367
1	0xc003bfe5	-2.0585873
2	0x40cbe0ba	6.3711824

Const_3 f4 [16]
0	0x3c64cf00	0.013965368
1	0xbc0886c0	-0.008332908
2	0x3d5b82dc	0.053591594
3	0x3e22cce0	0.15898466
4	0x3da29827	0.07939177
5	0xbd9bc989	-0.07606799
6	0x3e3255b9	0.17415513
7	0x3d9e7001	0.07736207
8	0x3c9522b6	0.018205028
9	0x3d85e4a4	0.0653775
10	0xbe33aa67	-0.17545472
11	0x3d26b0f6	0.040696107
12	0x3db27efa	0.08715625
13	0x3d2fcecb	0.042921823
14	0x3d55b7e4	0.052177325
15	0xbddf3890	-0.1089946

Const_7 f4 [16]
0	0xbf4283d3	-0.759824
1	0x3e4213dd	0.1895289
2	0x3ff0459d	1.8771244
3	0xbf02a262	-0.51029027
4	0xbf5c5409	-0.8606573
5	0xbe81621d	-0.25270167
6	0xbf0431dd	-0.51638585
7	0xbe9a04eb	-0.30081877
8	0x3f7ed900	0.99549866
9	0x3f462a7d	0.7740858
10	0x3ec08439	0.37600878
11	0x3f07c42a	0.530337
12	0x3f292246	0.6606792
13	0x3ee2b1a6	0.4427616
14	0xbdab43b0	-0.0836252
15	0xbf39b47c	-0.7254102

convolution f4 [1, 3, 3, 1]
0	0xbd930015	-0.0717775
1	0x3e36ea84	0.17862898
2	0xbd97df80	-0.07415676
3	0xbded36b9	-0.11582703
4	0x3d91021d	0.07080481
5	0x3de125f4	0.10993567
6	0x3e8abf36	0.27099007
7	0xbe35ea9f	-0.17765282
8	0xbca236da	-0.019801546

convolution_1 f4 [16, 1, 1, 1]
0	0xbc89c0b5	-0.016815523
1	0x3c8a51d0	0.016884714
2	0xbc8cb764	-0.017177291
3	0xbc8ae3be	-0.016954299
4	0xbc8d7086	-0.01726557
5	0x3c8e921f	0.01740366
6	0x3c93c9f0	0.018040627
7	0x3c925521	0.017862858
8	0x3c8cf866	0.01720829
9	0xbc8daa19	-0.017293023
10	0x3c8cd5ed	0.017191852
11	0xbc8affc7	-0.016967667
12	0xbc8ccd32	-0.017187688
13	0x3c89dbda	0.016828466
14	0x3c86cdc0	0.016455531
15	0xbc874a80	-0.016515017

depthwise f4 [1, 3, 3, 16]
0	0x3de8c3cd	0.11365471
1	0x3d1113ba	0.035419203
2	0x3e3bd9ac	0.18344754
3	0x3c88fac9	0.016721146
4	0xbe932e84	-0.28746426
5	0x3e7c3aa2	0.24631742
6	0x3df35df1	0.11883152
7	0xbe10d763	-0.14144664
8	0x3e498019	0.19677772
9	0x3ceb5e02	0.02873135
10	0xbe784086	-0.24243364
11	0xbccbecd0	-0.024893194
12	0xbd098a67	-0.033579256
13	0xbd6a5ed0	-0.057219326
14	0xbe5205fe	-0.20510098
15	0xbda0b15d	-0.07846329
16	0x3da92431	0.08258856
17	0x3e2c07f2	0.16799906
18	0x3e383130	0.17987514
19	0xbe95e26b	-0.29274306
20	0xbe1bf9ea	-0.15232053
21	0x3df453f9	0.11930079
22	0x3e8262f7	0.2546613
23	0xbd6911ae	-0.056901626
24	0x3c4021f9	0.01172685
25	0x3eb31564	0.34977257
26	0xbe85f4bc	-0.2616328
27	0x3ebe574c	0.37175977
28	0xbe177635	-0.14791186
29	0xbe253f94	-0.16137534
30	0xbe3c7424	-0.18403679
31	0x3e7ea2a6	0.24866733
32	0xbe6d19e5	-0.23154409
33	0xbd8a21d4	-0.067447335
34	0x3ea568ec	0.32306612
35	0xbe8de557	-0.27714035
36	0x3e963921	0.2934046
37	0x3e97fdb8	0.2968576
38	0x3e4b4148	0.19849122
39	0x3da3e3a2	0.08002402
40	0x3d597c33	0.05309696
41	0x3e87ab2e	0.26497787
42	0xbd30f3cc	-0.043201253
43	0xbd5d797c	-0.054070935
44	0xbe59b84a	-0.21261707
45	0x3e0fc97a	0.14041701
46	0x3cff15c1	0.031138303
47	0x3ddf3873	0.10899439
48	0x3c913c5e	0.01772898
49	0xbe71bddd	-0.23607583
50	0x3d5fdd08	0.05465415
51	0xbebdbc5e	-0.37057775
52	0x3cd0c6ec	0.025485478
53	0xbe2133a9	-0.15742363
54	0x3e91f021	0.28503516
55	0xbe1485de	-0.14504191
56	0xbeb2acae	-0.3489737
57	0xbdfeef71	-0.124480136
58	0xbd5eaec0	-0.054365873
59	0xbe7d66a8	-0.24746192
60	0x3d721c27	0.05910888
61	0xbe8a2708	-0.26982903
62	0xbd70fa82	-0.058832653
63	0x3e9bd220	0.3043375
64	0xbe4fe174	-0.20300847
65	0xbe01bb32	-0.12669066
66	0xbe64e9a8	-0.22354758
67	0xbdba3058	-0.09091252
68	0xbe645629	-0.22298492
69	0x3e9d1a4e	0.3068413
70	0x3d5b7617	0.053579416
71	0xbec013a2	-0.3751498
72	0x3d7e1fe0	0.062042117
73	0xbe783a17	-0.2424091
74	0x3d1d5593	0.038411688
75	0x3eaa18b4	0.33221972
76	0xbed682e9	-0.41896752
77	0x3e3143ec	0.17311066
78	0x3e63c9b8	0.22244918
79	0x3e1fb4fa	0.15596381
80	0x3d410a39	0.04712889
81	0xbe3b14c7	-0.18269645
82	0xbd1a0318	-0.037600607
83	0xbe38eeba	-0.18059817
84	0xbe2488fb	-0.16067879
85	0x3e20749f	0.15669487
86	0x3d8c7dd9	0.06859941
87	0xbed31cb8	-0.41232848
88	0xbe8fa5e6	-0.28056258
89	0x3e886ecd	0.26647034
90	0xbe8eeca3	-0.27914914
91	0xbe3b49da	-0.18289891
92	0xbe8856b5	-0.26628652
93	0x3d996e2c	0.07491717
94	0x3e366269	0.17810978
95	0xbdb3ff5c	-0.0878894
96	0x3b03b246	0.0020095273
97	0xbd978bf4	-0.07399741
98	0x3e467236	0.19379506
99	0xbdcb9fc3	-0.099425815
100	0xbd0f785f	-0.035026904
101	0x3d0ddd3d	0.034634817
102	0x3e0aff23	0.1357389
103	0x3df15762	0.11784245
104	0xbe3bced9	-0.18340625
105	0xbe13c3ef	-0.14430211
106	0xbebe5e8a	-0.37181503
107	0xbe3397be	-0.17538354
108	0x3e73a2b0	0.23792529
109	0xbd1cac06	-0.03824999
110	0xbe40ec58	-0.18840158
111	0xbd946f8a	-0.07247837
112	0x3d4b8ef8	0.049696892
113	0xbccc01ae	-0.024903145
114	0xbe87c5b6	-0.2651803
115	0xbc4e7da1	-0.012603194
116	0x3d2549ec	0.0403537
117	0x3d902f03	0.07040217
118	0x3eb48729	0.3525937
119	0x3e73301e	0.23748824
120	0x3e103b84	0.14085203
121	0xbe5a026d	-0.21289988
122	0xbdff4b2f	-0.12465512
123	0xbdc97346	-0.0983644
124	0x3e4ce384	0.20008665
125	0x3e5f8ff5	0.21832259
126	0x3ea3194f	0.31855246
127	0x3e379ec4	0.17931658
128	0xbe47788e	-0.19479582
129	0x3e15f2fa	0.1464347
130	0x3a7ab294	0.00095633534
131	0xbe7c3922	-0.2463117
132	0x3dd5265d	0.10407708
133	0x3e54ba87	0.2077428
134	0x3e5d2e4e	0.21599695
135	0x3e8fe013	0.28100643
136	0xbdab19ce	-0.08354531
137	0xbe765546	-0.24055967
138	0xbe9dfb77	-0.30855915
139	0xbd60c328	-0.054873616
140	0xbde534fa	-0.11191745
141	0x3e75c6d3	0.24001627
142	0xbe44c24d	-0.19214745
143	0x3e6daae9	0.23209728

convolution_2 f4 [16, 1, 1, 16]
0	0xbe351eae	-0.17687485
1	0xbe488d3e	-0.1958513
2	0x3ed3425d	0.4126157
3	0xbe6eac00	-0.233078
4	0x3eda00c1	0.425787
5	0xbedc05ed	-0.4297327
6	0x3ea48872	0.3213535
7	0xbe5323fe	-0.20619199
8	0x3e93ea5b	0.28889737
9	0xbec60803	-0.38677987
10	0xbe930c34	-0.28720248
11	0x3e970fa8	0.29504132
12	0x3f185528	0.5950494
13	0xbe730a25	-0.23734339
14	0x3e865a16	0.26240605
15	0x3eab0d6a	0.33408672
16	0x3f1dc504	0.61628747
17	0x3e7d5a6f	0.24741529
18	0xbcbde6ab	-0.02318128
19	0x3ee48d25	0.44638935
20	0x3ea6b07f	0.3255653
21	0x3f514fc2	0.81762326
22	0xbf102ccc	-0.56318355
23	0x3ea8ea0f	0.32991073
24	0xbef55f4c	-0.47924268
25	0xbc45672c	-0.012048524
26	0x3ab6362d	0.0013901644
27	0x3f21625f	0.6304073
28	0x3e894373	0.26809272
29	0xbf0b7e47	-0.5448956
30	0x3f17ce54	0.59299207
31	0x3f1fa4e5	0.62360984
32	0x3e9ef1e6	0.3104393
33	0xbf88f4e8	-1.069974
34	0x3e2e5a1f	0.17026566
35	0x3dfc44f5	0.1231784
36	0xbdcd3dc7	-0.10021549
37	0xb9c8aaf8	-0.00038274354
38	0xbf7ded99	-0.9919067
39	0x3f298679	0.66220814
40	0xbd63fdf6	-0.055662118
41	0xbea11709	-0.31462887
42	0xbf3da63b	-0.7408177
43	0x3e2880bb	0.16455357
44	0xbd79fd62	-0.06103266
45	0x3df86768	0.12129098
46	0xbea2319f	-0.31678483
47	0xbe14ad0c	-0.14519137
48	0x3c98bfd5	0.01864616
49	0xbb1d8927	-0.0024038048
50	0x3dac3425	0.08408383
51	0x3cec0f01	0.028815748
52	0xbde613f7	-0.11234277
53	0x3e313071	0.17303635
54	0x3e0e0159	0.13867702
55	0x3d8efdb3	0.06981983
56	0xbd0e0fc8	-0.03468302
57	0x3de13b83	0.10997679
58	0xbe1e0fb3	-0.15435676
59	0x3d9196c7	0.071088366
60	0x3d04bf55	0.03240903
61	0xbd7deab7	-0.06199142
62	0x3dde75f6	0.10862343
63	0x3d57b25a	0.052660324
64	0x3a047b53	0.0005053777
65	0x3e390cd0	0.18071294
66	0x3e1cfdf5	0.15331252
67	0x3d8ea26f	0.069645755
68	0xbe6f1a70	-0.23349929
69	0x3bd03f9b	0.0063552386
70	0x3e71ac7f	0.23600958
71	0xbdd1367f	-0.102154724
72	0xbe66016c	-0.2246148
73	0x3de949eb	0.11391052
74	0xbe157a96	-0.14597544
75	0xbde8279c	-0.1133568
76	0x3db0ef0c	0.086393446
77	0xbd821647	-0.06351905
78	0xbc20e929	-0.009821215
79	0x3c58bd28	0.013228692
80	0xbe0f3e8f	-0.13988708
81	0x3d9c9ddf	0.07647299
82	0xbe6e1954	-0.2325185
83	0x3ed7ba8b	0.42134508
84	0x3f1a974f	0.6038713
85	0x3e06cdf0	0.13164496
86	0x3ed8c2de	0.42336172
87	0xbf14a679	-0.5806652
88	0x3e539730	0.20663142
89	0xbe736977	-0.237707
90	0x3e2a9d98	0.1666168
91	0xbd5f366b	-0.054495256
92	0x3e66aace	0.22526094
93	0x3d919d14	0.071100384
94	0x3c833f80	0.01602149
95	0xbe5a1142	-0.21295646
96	0xbee35267	-0.44398805
97	0xbed0969a	-0.407399
98	0x3f1be199	0.6089111
99	0xbf184b06	-0.59489477
100	0x3f24681d	0.64221364
101	0x3e8677ff	0.26263425
102	0xbf0f5023	-0.55981654
103	0x3d3726c9	0.044714723
104	0x3e52d20b	0.20587938
105	0x3f18d9e3	0.5970747
106	0x3dd91487	0.105996184
107	0x3e8baac7	0.2727873
108	0x3f0fa97f	0.56118006
109	0xbe99a852	-0.3001123
110	0x3f03f440	0.5154457
111	0x3f1c246c	0.60993075
112	0x3eb6161f	0.35563752
113	0xbf23da12	-0.64004624
114	0x3f907add	1.1287495
115	0x3d3a312a	0.045457043
116	0x3cf4596b	0.029827794
117	0x3e9ffa20	0.31245518
118	0x3c4881a7	0.012237943
119	0xbed99a2a	-0.4250043
120	0xbe15dad7	-0.14634262
121	0x3f0dbf38	0.553699
122	0x3ed5f971	0.4179187
123	0xbf4d4e7f	-0.801979
124	0x3ee057bc	0.43816936
125	0x3f458ad7	0.7716498
126	0xbecb4f04	-0.39708722
127	0xbda90a77	-0.08253949
128	0xbd584a54	-0.05280526
129	0xbf63a3e7	-0.8892197
130	0x3f0fe02a	0.5620142
131	0x3f472f69	0.7780672
132	0xbeec4b9b	-0.46151432
133	0xbeaafa29	-0.33393982
134	0xbc00db3b	-0.007864769
135	0xbe899fef	-0.26879832
136	0xbc880244	-0.016602643
137	0x3ee08126	0.43848532
138	0x3c0ff436	0.008786252
139	0xbdb819a5	-0.08989266
140	0x3eea4803	0.45758066
141	0xbe1af715	-0.15133317
142	0x3d490cf8	0.049084634
143	0x3ef762dc	0.4831761
144	0xbec96cf2	-0.3934093
145	0x3ec8aa52	0.39192444
146	0xbe5b1c83	-0.21397595
147	0x3e582a94	0.21109992
148	0xbdb752ed	-0.08951364
149	0x3ce55772	0.027995799
150	0xbedc9815	-0.4308478
151	0xbeecbca7	-0.4623768
152	0x3c815b8f	0.015790729
153	0xbe058d56	-0.13042197
154	0xbd6f24b9	-0.05838463
155	0x3eba184f	0.3634667
156	0xbee13f40	-0.43993568
157	0xbde62219	-0.11236972
158	0x3bae74e7	0.0053239944
159	0xbe2e27e2	-0.17007402
160	0x3cd7bb4c	0.026334427
161	0x3e877a39	0.26460436
162	0xbe4bdc70	-0.19908309
163	0xbe8e3329	-0.27773407
164	0xbd94b54b	-0.072611414
165	0x3ce3eadf	0.027821956
166	0xbe9f6e9f	-0.31139085
167	0x3e129d97	0.14317928
168	0x3e88ae20	0.26695347
169	0xbceadac6	-0.028668772
170	0x3e71b56c	0.23604363
171	0xbda83191	-0.08212579
172	0xbe5f11f6	-0.21784195
173	0x3d8c7829	0.06858856
174	0xbe1c12cb	-0.15241544
175	0x3e89394c	0.26801527
176	0x3ef3f5b0	0.47648382
177	0x3eb909f0	0.36140394
178	0x3cbe79fd	0.023251528
179	0xbe02129a	-0.12702408
180	0xbe19cb9d	-0.15019079
181	0x3e8917a5	0.26775852
182	0xbe83ccf4	-0.25742304
183	0xbdb890cc	-0.09011993
184	0x3f4399e8	0.7640672
185	0x3ef09698	0.46989894
186	0xbee8d2a1	-0.45473197
187	0xbe94f866	-0.29095763
188	0x3eedf7da	0.46478158
189	0xbf0757b0	-0.52868176
190	0xbf1adcbb	-0.6049306
191	0xbecc8e5b	-0.3995236
192	0xbddf98d1	-0.10917819
193	0x3d9b5466	0.07584457
194	0x3d955c8f	0.07293045
195	0x3d51a0d6	0.051178776
196	0xbe1e8fd7	-0.15484558
197	0x3e98f730	0.2987609
198	0xbe6ac196	-0.2292541
199	0xbe0dac80	-0.13835335
200	0x3df86f11	0.12130559
201	0x3e771fa2	0.2413316
202	0x3e479363	0.19489817
203	0xbe2f8293	-0.17139654
204	0x3e9c7e04	0.30564892
205	0xbeae5b93	-0.3405424
206	0xbd217b7a	-0.039424397
207	0xbe45f354	-0.19331104
208	0x3e98966d	0.29802266
209	0x3d87d97f	0.06633281
210	0x3d7c04aa	0.061527885
211	0xbf3ca60b	-0.7369086
212	0xbea54ed4	-0.32286704
213	0xbf3d73f7	-0.74005073
214	0x3fc77f81	1.5585786
215	0x3c3f02f2	0.011658417
216	0xbe6db89d	-0.23214956
217	0xbf2995d6	-0.66244256
218	0x3fcd86c8	1.6056757
219	0x3f0a7259	0.5408073
220	0x3daf3f23	0.08556964
221	0x3f1ca57f	0.61190027
222	0xbea74530	-0.32669973
223	0xbfbaf290	-1.4605274
224	0xbf1bc669	-0.60849625
225	0xbe4a30dd	-0.19745202
226	0x3d4f6240	0.050630808
227	0xbeb637b3	-0.3558937
228	0xbe19b7d7	-0.15011536
229	0x3ed2bd79	0.4116018
230	0xbd471705	-0.048605938
231	0x3e559ae6	0.2085987
232	0x3e3b9daf	0.1832187
233	0xbf214bdc	-0.6300638
234	0x3db053c7	0.08609729
235	0xbdbafbf9	-0.09130091
236	0xbe31eee8	-0.17376292
237	0x3edf6301	0.4363022
238	0xbf366c42	-0.7125894
239	0xbf1781db	-0.5918252
240	0xbd24d38e	-0.040240817
241	0xbe08ac91	-0.13347079
242	0xbbf676b0	-0.007521473
243	0xbce43256	-0.027856033
244	0xbe359ac0	-0.17734814
245	0x3e716c58	0.23576486
246	0xbdcb1b56	-0.09917323
247	0x3d3536e4	0.0442418
248	0xbdb71ab4	-0.0894064
249	0xbe1571f5	-0.14594252
250	0xbe5c2a2c	-0.21500462
251	0x3e295145	0.16534908
252	0x3e1093c4	0.14118868
253	0x3e00d951	0.125829
254	0xbcc59908	-0.024120823
255	0x3e2cb096	0.16864237

depthwise_1 f4 [1, 3, 3, 16]
0	0x3dba7fd7	0.09106415
1	0x3e2db342	0.16962913
2	0xbe89c381	-0.2690697
3	0xbea786fe	-0.32720178
4	0x3ea4a096	0.32153767
5	0x3df8f62b	0.12156328
6	0xbe881b25	-0.2658321
7	0xbe4d7d72	-0.20067385
8	0x3ea671a8	0.32508588
9	0x3e9f4df6	0.31114167
10	0xbe3207ad	-0.1738574
11	0xbea9bdef	-0.3315272
12	0x3e9bf3e2	0.30459505
13	0x3e485fe9	0.19567837
14	0x3e92d893	0.28680858
15	0xbe4f4426	-0.2024084
16	0x3e4c5008	0.19952404
17	0xbe41b358	-0.1891607
18	0xbe0d5825	-0.13803156
19	0x3df713b7	0.12064307
20	0x3e7cde5e	0.24694201
21	0x3e25aba5	0.16178758
22	0xbe730a4b	-0.23734395
23	0xbe2d868c	-0.16945857
24	0xbe9ac197	-0.30225822
25	0xbe706020	-0.23474169
26	0x3e0610d2	0.13092354
27	0x3e9dd211	0.3082433
28	0x3e69e0fd	0.22839732
29	0x3e163b74	0.14671117
30	0xbbc3c6c5	-0.005974623
31	0xbdfe31fe	-0.12411879
32	0x3e12129f	0.14264916
33	0x3e98d1e6	0.2984764
34	0x3d62d9b0	0.055383384
35	0x3e1c00c4	0.15234667
36	0xbc4b80e5	-0.012420868
37	0xbc9b6ba0	-0.018972218
38	0x3d8bd3ad	0.06827483
39	0xbe4f4871	-0.20242478
40	0x3ddb37eb	0.10704025
41	0xbe1f44ed	-0.15553637
42	0x3da98c89	0.08278758
43	0xbe7f0bbe	-0.24906823
44	0xbe9d76ac	-0.30754602
45	0x3ed439d4	0.4145037
46	0xbe4a4e8b	-0.19756524
47	0x3d8b871b	0.06812879
48	0xbe571d8a	-0.21007362
49	0xbd8fb4ec	-0.0701693
50	0x3d827b11	0.06371129
51	0xbe70c82d	-0.23513861
52	0xbe54bc99	-0.2077507
53	0x3e906058	0.28198504
54	0x3e42f552	0.19038895
55	0x3e8a1411	0.26968434
56	0xbcb969fe	-0.022633549
57	0xbaabc3c1	-0.0013104604
58	0xbe176b68	-0.14787066
59	0xbd4c2806	-0.049842857
60	0x3ddbb472	0.107277766
61	0x3e1069a7	0.14102803
62	0xbe70cc72	-0.2351549
63	0xbd952787	-0.0728293
64	0xbe2c7ecb	-0.16845243
65	0x3e51dc15	0.20494111
66	0xbdfaf4f2	-0.12253751
67	0xbec4364c	-0.38322675
68	0xbe365f97	-0.17809902
69	0x3e5e1309	0.21686949
70	0x3e89b81a	0.2689827
71	0xbe7a2f65	-0.24432142
72	0x3e2d0b99	0.16898955
73	0xbe3eeb31	-0.18644406
74	0xbeaba7be	-0.33526415
75	0xbcb54378	-0.022126898
76	0x3cb129cd	0.021626377
77	0x3da2af63	0.079436086
78	0xbd6c19d9	-0.057641838
79	0x3de8d267	0.11368256
80	0x3e05f89c	0.13083118
81	0x3ea7693d	0.32697478
82	0xbe024825	-0.12722833
83	0xbeb919fb	-0.36152634
84	0xbd73ebe5	-0.05955114
85	0xbd8097bf	-0.06278943
86	0xbe7d1342	-0.24714378
87	0xbd68d263	-0.056841265
88	0xbe7f239c	-0.24915928
89	0x3c33b8bc	0.010969337
90	0xbe6f9900	-0.23398209
91	0x3e57b411	0.21064784
92	0x3a4a12c7	0.00077084865
93	0xbde03127	-0.10946875
94	0x3de20cd6	0.110376045
95	0x3d32f694	0.043692186
96	0xbe93c93c	-0.28864467
97	0x3e92c774	0.28667796
98	0x3deb2c92	0.114831105
99	0x3e41cbf8	0.18925464
100	0x3e84f31a	0.25966722
101	0x3e9860a9	0.29761246
102	0xbca9a115	-0.020706693
103	0xbe69418b	-0.22778909
104	0xbe976333	-0.2956787
105	0x3e4f4191	0.20239855
106	0xbe9ffa58	-0.31245685
107	0x3e04e175	0.1297663
108	0xbe3d1439	-0.18464746
109	0x3d3e09a7	0.046395924
110	0xbe1297df	-0.14315747
111	0xbe81962b	-0.25309882
112	0xbe252082	-0.16125682
113	0x3e3eac94	0.18620521
114	0xbcca0743	-0.024661666
115	0xbda65080	-0.08120823
116	0xbdc205d6	-0.09473769
117	0x3d0ddd91	0.03463513
118	0x3e97d9de	0.29658407
119	0x3e5a01fa	0.21289816
120	0xbe6732b5	-0.22577937
121	0x3e9977e0	0.2997427
122	0x3e719673	0.23592548
123	0xbe65d06b	-0.22442786
124	0xbeab10f9	-0.33411387
125	0x3e3f7927	0.1869856
126	0x3e47c33c	0.1950807
127	0x3e85b0f3	0.26111564
128	0x3dde7e80	0.10863972
129	0xbc90bd31	-0.017668338
130	0xbe87815b	-0.26465878
131	0x3e236eeb	0.1596028
132	0xbcd02b88	-0.025411382
133	0x3e42e42d	0.19032355
134	0xbdfd162e	-0.12357746
135	0x3d929b63	0.07158544
136	0x3e187e5f	0.14891957
137	0x3e99a090	0.30005312
138	0x3e59fab5	0.21287043
139	0x3e67f223	0.22650962
140	0xbe0d98dd	-0.13827844
141	0x3d740fa3	0.059585225
142	0x3ebe12a6	0.37123603
143	0x3e32b17b	0.17450516

convolution_3 f4 [16, 1, 1, 16]
0	0x3ecd3728	0.40081143
1	0xbe879ac8	-0.26485276
2	0x3a684b5f	0.0008861329
3	0x3f1b9e5e	0.60788524
4	0x3ea0c4a8	0.31400037
5	0xbeecbd3b	-0.4623812
6	0x3e8c367a	0.27385312
7	0x3e651602	0.22371677
8	0xbd7b491e	-0.061349027
9	0x3eafe6ff	0.34355924
10	0xbe21a8ca	-0.15787044
11	0x3ead201c	0.3381356
12	0xbe74b7c8	-0.23898232
13	0x3f01ba2c	0.506747
14	0x3dd5d2b5	0.1044058
15	0xbea4a847	-0.32159635
16	0xbe33a387	-0.1754285
17	0xbf1d14ee	-0.6136006
18	0xbf9114ae	-1.1334436
19	0xbe68cbc1	-0.22733976
20	0x3daa9a96	0.08330266
21	0xbdeeff7e	-0.11669825
22	0xbedabb71	-0.4272113
23	0xbf1a44c0	-0.60261154
24	0x3d365f08	0.044524223
25	0xbe32d4e1	-0.1746402
26	0x3f1b68f5	0.60707027
27	0x3e1b1990	0.1514647
28	0x3e328e24	0.17437035
29	0x3eeb20a4	0.4592334
30	0x3f8b6753	1.0890907
31	0xbf8ea434	-1.1143861
32	0x3e958ba3	0.29208097
33	0xbe4dd373	-0.20100193
34	0x3dc89ada	0.097951606
35	0x3fb75caa	1.4325154
36	0xbf0dc160	-0.5537319
37	0x3e982d5c	0.29722106
38	0x3efe6319	0.4968498
39	0xbf09be33	-0.53805846
40	0xbed06282	-0.40700155
41	0x3f4d34cf	0.80158705
42	0xbf01260a	-0.5044867
43	0xbe40d8c0	-0.18832684
44	0xbf3db864	-0.7410948
45	0xbc311283	-0.010807636
46	0x3db8c347	0.09021621
47	0xbd53bbe4	-0.05169286
48	0xbe9226e3	-0.28545293
49	0x3f19c1ea	0.60061514
50	0xbf1e7265	-0.618933
51	0x3f869284	1.0513463
52	0xbf576bdb	-0.8414895
53	0x3e595357	0.21223198
54	0xbf0d4809	-0.5518804
55	0xbefa90bc	-0.4893855
56	0xbeef75ca	-0.46769553
57	0xbf9e0207	-1.2344369
58	0xbf4c94df	-0.7991466
59	0xbf4db6f4	-0.8035729
60	0x3ed277fb	0.41107163
61	0x3e10d5cc	0.14144057
62	0xbddbf5a9	-0.10740215
63	0xbe9fc011	-0.31201223
64	0xbe089bb0	-0.1334064
65	0xbcc5852e	-0.024111357
66	0x3e9512d7	0.29115936
67	0x3f0c8fd5	0.5490697
68	0x3ecf100c	0.4044193
69	0xbf55de29	-0.83542114
70	0x3f41a758	0.7564597
71	0xbe132542	-0.14369681
72	0xbea03bef	-0.31295726
73	0xbefa043d	-0.4883136
74	0xbf724e3e	-0.9465064
75	0xbf1ce88e	-0.6129235
76	0x3f81feeb	1.015592
77	0xbf610346	-0.8789562
78	0x3f046968	0.5172334
79	0x3ec8d0cd	0.39221802
80	0xbd2fa141	-0.042878393
81	0xbe951d04	-0.291237
82	0x3e4a3143	0.19745354
83	0xbe450096	-0.19238505
84	0x3e8f15b2	0.2794624
85	0x3f04809d	0.5175875
86	0xbed7ac5d	-0.4212369
87	0xbe3db4f5	-0.18526061
88	0x3e2ab8ac	0.16672009
89	0xbe8790fd	-0.26477805
90	0x3e47f94d	0.19528694
91	0xbda9ccaf	-0.082909934
92	0xbda0ece2	-0.07857682
93	0xbeb45a13	-0.3522497
94	0x3dc77f7b	0.09741112
95	0xbe24c764	-0.16091686
96	0x3e8ad6e6	0.2711708
97	0x3e8453f7	0.2584531
98	0x3f227c63	0.6347105
99	0x3f0fe8f7	0.5621485
100	0x3e89406a	0.26806957
101	0xbf262c1b	-0.6491105
102	0x3ec3508a	0.38147384
103	0x3ddc4bae	0.10756622
104	0x3ee3d7a3	0.44500455
105	0x3eae6b58	0.34066272
106	0x3e991f94	0.29906905
107	0x3f49b98f	0.78798765
108	0x3e0bc8a9	0.13650765
109	0x3eb00bfb	0.3438414
110	0xbd263899	-0.04058132
111	0xbee1cd85	-0.4410211
112	0xbf2afce8	-0.66792154
113	0x3fa54f58	1.2914839
114	0xbf5ad9cc	-0.8548858
115	0xbf498d98	-0.7873168
116	0xbfc0926f	-1.5044688
117	0x3ed1f116	0.41004246
118	0x3f966a2e	1.1751153
119	0x3e1f005e	0.15527484
120	0x3fd02d06	1.626374
121	0xbfc7f725	-1.5622298
122	0x3e951337	0.29116222
123	0x3fb3690f	1.4016436
124	0xbf7eb7c2	-0.9949914
125	0xbf23b579	-0.6394878
126	0xbf68e347	-0.909718
127	0x3dae2804	0.08503726
128	0xbdbe7994	-0.09300533
129	0x3fb9485d	1.4475209
130	0xbf68d4ed	-0.909499
131	0xbe1cade7	-0.15300713
132	0xbc87d6f6	-0.016581994
133	0x3f185192	0.59499466
134	0xbe5bfb73	-0.21482639
135	0xbd2b230c	-0.04178147
136	0xbf464177	-0.7744364
137	0xbf66ec2f	-0.9020414
138	0xbee1c6ba	-0.4409693
139	0x3d1fc91e	0.03901016
140	0x3fb337b0	1.400137
141	0xbfbcc6a3	-1.4748119
142	0x3f1f294f	0.62172407
143	0xbf932ed5	-1.1498667
144	0x3d0b6208	0.034029037
145	0xbf7a92c0	-0.9788017
146	0x3f1e7669	0.6189943
147	0xbebebbfb	-0.37252793
148	0x3e8de4c1	0.27713588
149	0x3ed4f169	0.4159043
150	0x3ec2ebde	0.38070577
151	0xbdf890b9	-0.12136979
152	0x3ebb1ec8	0.36546922
153	0x3e9fdd59	0.31223562
154	0xbf1f7a04	-0.62295556
155	0xbe8de6c6	-0.2771513
156	0xbe362066	-0.17785797
157	0x3e95d599	0.29264525
158	0xbe11e30d	-0.14246769
159	0x3e02b416	0.1276401
160	0xbf142d5b	-0.57881707
161	0x3fd0606f	1.6279429
162	0xbf90a031	-1.1298887
163	0xbf12a0df	-0.5727672
164	0x3eee5cbf	0.46555135
165	0x3d83a26c	0.06427464
166	0xbf58945f	-0.84601396
167	0xbe25d374	-0.16193944
168	0xbea0c614	-0.31401122
169	0x3e9dd0ba	0.30823308
170	0xbf084840	-0.53235245
171	0xbe2ef3ba	-0.17085162
172	0xbe9284dd	-0.28616992
173	0xbf564e88	-0.8371358
174	0x3faff921	1.3747903
175	0x3e7bb273	0.24579792
176	0xbf59199e	-0.84804714
177	0xbfaa5d49	-1.3309718
178	0x3f54ea5e	0.83170116
179	0x3eed3032	0.46325833
180	0x3ff7794e	1.9333894
181	0xbf7f516f	-0.9973363
182	0x3f1c62f3	0.61088485
183	0x3e3813de	0.17976329
184	0xbf5c1f5a	-0.8598534
185	0xbf7d99b7	-0.99062675
186	0x3f521f11	0.82078654
187	0x3ecce6b3	0.4001976
188	0xbc244035	-0.010025074
189	0x3e81a792	0.25323159
190	0x3e82fb47	0.25582334
191	0x3e81d6f8	0.2535932
192	0xbca3298b	-0.01991727
193	0x3f8ff6e4	1.124722
194	0x3e6909e6	0.22757682
195	0x3fa4eb72	1.2884352
196	0x3ed8f119	0.42371443
197	0x3ed61e85	0.4182016
198	0xbf53b6a0	-0.8270054
199	0xbda23b04	-0.079214126
200	0x3fc2b880	1.5212555
201	0x3e58607c	0.21130556
202	0xbecd6577	-0.40116474
203	0x3f4a3328	0.7898431
204	0x3f3db120	0.74098396
205	0xbd129be7	-0.03579321
206	0x3f0fcd6f	0.5617284
207	0x3f9472a3	1.1597484
208	0xbed1032d	-0.40822735
209	0x3f3eaf1f	0.74485964
210	0x3eef2c85	0.46713653
211	0xbf1d7e66	-0.61520994
212	0x3f444897	0.76673263
213	0xbf7ea853	-0.9947559
214	0xbfec04d5	-1.8438975
215	0x3e6024e8	0.21889079
216	0x3f900705	1.1252142
217	0xbe3700c0	-0.1787138
218	0x3fdb2f9f	1.7123908
219	0xbf961e69	-1.172803
220	0xbf3830b1	-0.719493
221	0xbed269be	-0.410963
222	0xbe94790b	-0.28998598
223	0x3e7cc635	0.24684985
224	0xbea3c49c	-0.3198594
225	0x3ef2fa35	0.47456518
226	0x3da4f6c4	0.08054879
227	0xbf1075b2	-0.5642959
228	0xbec675fc	-0.3876189
229	0x3e9d82af	0.30763766
230	0x3ed9b51b	0.42520985
231	0xbf1878b6	-0.5955919
232	0xbf1766c0	-0.5914116
233	0xbe932212	-0.2873693
234	0x3e3ce6a1	0.18447353
235	0xbe9ed276	-0.31019944
236	0xbee7be79	-0.45262507
237	0x3ef300c9	0.47461537
238	0xbd86d888	-0.06584269
239	0xbf223fad	-0.6337841
240	0xbf9c64cf	-1.2218264
241	0x3eac9e8b	0.3371471
242	0xbdb787d9	-0.08961458
243	0x3d5192a0	0.051165223
244	0x3e0b0c2b	0.1357886
245	0x3d91d736	0.07121126
246	0x3ed0bb92	0.40768105
247	0xbf41a85c	-0.7564752
248	0x3f91a492	1.1378348
249	0xbfa15c35	-1.2606264
250	0xbf079221	-0.5295735
251	0xbf87b364	-1.0601621
252	0xbec533d2	-0.38516098
253	0x3fc0cf19	1.5063201
254	0xbeb05a34	-0.3444382
255	0x3f29ebb7	0.663753

depthwise_2 f4 [1, 3, 3, 16]
0	0x3e69f15b	0.22845976
1	0x3e68d555	0.2273763
2	0xbe7642e2	-0.24048951
3	0x3c2299cd	0.009924364
4	0x3e86677a	0.2625082
5	0x3e227d9c	0.15868229
6	0x3e5b4eac	0.2141673
7	0x3d2b6242	0.041841753
8	0xbdb0a7e2	-0.08625771
9	0x3b88f222	0.004179255
10	0x3da00a1c	0.07814428
11	0x3e531993	0.20615225
12	0xbc1e90e4	-0.009678099
13	0xbe0355b5	-0.12825663
14	0xbe61a470	-0.22035384
15	0x3d144c62	0.036205657
16	0x3cf8a65a	0.03035276
17	0xbdf6c79d	-0.12049792
18	0x3e5a3cbe	0.21312234
19	0xbdcf0ed2	-0.101102486
20	0x3d14c784	0.036323085
21	0xbd995949	-0.07487733
22	0xbe28a471	-0.1646898
23	0x3e049645	0.12947948
24	0xbe44713b	-0.19183819
25	0x3ca3bb76	0.01998685
26	0xbec7780c	-0.38958776
27	0xbc1e6ff3	-0.009670245
28	0x3e11d73e	0.14242265
29	0x3dbc4c90	0.09194291
30	0x3c48db5a	0.012259329
31	0x3c7fb998	0.015608214
32	0x3e88bf1f	0.26708314
33	0x3df57ba2	0.11986472
34	0xbe877b18	-0.264611
35	0xbe2eaea8	-0.17058814
36	0x3e4285b8	0.18996322
37	0x3e0203a3	0.126967
38	0x3e39b16b	0.18134086
39	0x3d61f0b1	0.05516118
40	0xbd57898c	-0.05262141
41	0xbe6d9ca4	-0.23204285
42	0x3cc2a105	0.02375842
43	0xbe5e4e4a	-0.21709552
44	0x3e64270b	0.22280519
45	0x3d5aa66d	0.053381372
46	0xbde32686	-0.11091332
47	0xbe7e3ade	-0.24827144
48	0x3e93049d	0.28714457
49	0xbe4a078c	-0.19729441
50	0xbddb732a	-0.10715325
51	0x3d037bca	0.032100476
52	0x3e112c79	0.14177121
53	0xbd4290f5	-0.047501523
54	0x3de3dd15	0.111261524
55	0xbd06ad7f	-0.032880303
56	0xbe0077dc	-0.12545723
57	0x3916097e	0.00014308651
58	0xbd9a32ff	-0.07529258
59	0xbd96bbbc	-0.07360026
60	0x3eae6976	0.34064835
61	0x3d56798c	0.05236201
62	0x3e0dfea0	0.13866663
63	0xbeaef37a	-0.34170133
64	0x3da97ac2	0.08275367
65	0x3df1cb33	0.11806335
66	0x3c33c8fb	0.01097321
67	0x3ea9cd11	0.33164266
68	0xbebc4425	-0.3677074
69	0xbe4e67c4	-0.20156771
70	0x3e764305	0.24049003
71	0x3dcd9977	0.10039037
72	0x3dd6bf1b	0.10485669
73	0xbe177809	-0.14791884
74	0xbdea247c	-0.1143274
75	0x3e192987	0.14957248
76	0xbddbfa14	-0.10741058
77	0xbc888816	-0.016666453
78	0x3e020231	0.12696148
79	0x3dc52fc3	0.096282504
80	0xbdb69d43	-0.08916714
81	0xbc392e5e	-0.011302559
82	0xbe9b164d	-0.30290452
83	0x3e15c828	0.14627135
84	0xbd750201	-0.059816364
85	0x3e76f861	0.24118187
86	0x3e1fb2f5	0.1559561
87	0x3e5792d4	0.21052104
88	0xbe12166d	-0.14266367
89	0xbe9b3eac	-0.30321252
90	0xbe1bd2b2	-0.15217093
91	0xbe7fd464	-0.24983364
92	0xbea4c500	-0.3218155
93	0x3e2f1bd8	0.17100465
94	0x3e8c1420	0.27359104
95	0xbe6cb8d7	-0.23117386
96	0x3e2a192b	0.16611163
97	0x3dc9ba5c	0.09849998
98	0x3e7ed84e	0.24887201
99	0x3e79e9ef	0.24405645
100	0xbce584e7	-0.028017474
101	0xbe381a06	-0.17978677
102	0x3e8f312d	0.27967206
103	0x3d5810a7	0.052750256
104	0xbe22e752	-0.15908554
105	0xbebf6fe9	-0.37390068
106	0xbdeb7ecc	-0.11498794
107	0x3e97324f	0.2953057
108	0xbe59795c	-0.21237701
109	0x3e08ad96	0.13347468
110	0x3e818e4b	0.25303873
111	0xbdf01c49	-0.11724145
112	0x3c97b2f2	0.018517945
113	0xbea046e6	-0.3130409
114	0xbe04f60a	-0.12984481
115	0x3d161a11	0.036645953
116	0x3cec590c	0.028851055
117	0x3e818825	0.25299183
118	0xbd80da6d	-0.062916614
119	0x3d6e81f4	0.0582294
120	0xbb94753a	-0.004530576
121	0xbe9f7946	-0.31147212
122	0xbe3a6e30	-0.18206096
123	0x3dc6689c	0.096879214
124	0xbd47dfe6	-0.04879751
125	0x3e3feb72	0.18742159
126	0xbea67784	-0.32513058
127	0x3d14c1ec	0.03631775
128	0xbcad5fc9	-0.021163838
129	0x3e7884d2	0.24269417
130	0x3b3e34f4	0.0029023262
131	0x3e336c46	0.17521772
132	0xbc804005	-0.015655527
133	0x3db03bb2	0.08605136
134	0x3e9e2750	0.30889368
135	0xbba74f15	-0.005105863
136	0xbe3e9779	-0.1861247
137	0xbea88d93	-0.32920513
138	0xbcc31eee	-0.02381846
139	0x3e8fa34d	0.28054276
140	0x3e280c48	0.16410935
141	0x3e533188	0.20624363
142	0xbe3f6c54	-0.18693668
143	0x3d78cf2e	0.060744457

convolution_4 f4 [16, 1, 1, 16]
0	0xbb87f312	-0.0041488493
1	0x3f0ae2de	0.5425242
2	0xbd1725be	-0.036901228
3	0xbf31b51a	-0.69416964
4	0xbee0ea5b	-0.439288
5	0xbf4edb5d	-0.8080347
6	0x3eb58a2a	0.35456973
7	0x3f246b98	0.64226675
8	0xbf3d1f9b	-0.7387635
9	0x3f42de88	0.76120806
10	0x3d195e3e	0.037443392
11	0xbeb2bfed	-0.34912053
12	0xbec7223c	-0.38893306
13	0xbece7cc9	-0.4032958
14	0xbf00b9a5	-0.5028327
15	0x3e3f3a96	0.18674693
16	0x3e96c31e	0.29445738
17	0xbdba7566	-0.09104423
18	0x3ebd5c78	0.3698461
19	0xbe031123	-0.12799506
20	0xbe8079b8	-0.25092864
21	0x3e947646	0.28996485
22	0x3dcfca5e	0.1014602
23	0x3e140494	0.14454871
24	0x3e159028	0.14605772
25	0xbf038dbf	-0.5138816
26	0xbe8ea476	-0.2785985
27	0xbe4d56dd	-0.20052667
28	0xbe0c1112	-0.13678387
29	0x3ece6728	0.40313077
30	0x3eba6d9a	0.36411744
31	0x3e555400	0.20832825
32	0xbf28e368	-0.65971994
33	0xbf086827	-0.53283924
34	0xbddc130e	-0.10745822
35	0xbf2d4953	-0.6769001
36	0xbd9586d2	-0.073011056
37	0x3f0f06f2	0.5586997
38	0xbed94b2c	-0.42440164
39	0x3eaed6d0	0.34148264
40	0xbd7e022f	-0.0620138
41	0x3dd6eb8a	0.10494144
42	0xbe8364e6	-0.25662917
43	0xbf076e63	-0.5290281
44	0xbbe20354	-0.0068973694
45	0x3eca82ac	0.3955282
46	0x3f14f0db	0.58180016
47	0xbf0bad7b	-0.54561585
48	0xbec88445	-0.39163414
49	0xbe91b4c5	-0.2845823
50	0x3eec7004	0.4617921
51	0xbcd2cdea	-0.025732953
52	0xbf0665fd	-0.5249937
53	0x3efbe771	0.49200013
54	0xbeeaeeeb	-0.45885405
55	0xbed91453	-0.4239832
56	0xbe16f557	-0.14742027
57	0xbeaeac29	-0.34115723
58	0xbdaa789a	-0.08323784
59	0x3eea2617	0.45732185
60	0xbf1f8166	-0.6230682
61	0xbe676a6d	-0.22599192
62	0xbe9bd342	-0.30434614
63	0x3e0ac68e	0.13552305
64	0x3f3c74d5	0.7361577
65	0xbca971e3	-0.020684188
66	0xbe18dbe1	-0.14927627
67	0xbee0822e	-0.4384932
68	0xbe477b3d	-0.19480605
69	0xbecf78e2	-0.40521914
70	0x3ec4612f	0.38355395
71	0x3eb7805a	0.35840112
72	0x3e914169	0.28370216
73	0x3d68bf82	0.05682326
74	0x3ed22074	0.41040385
75	0xbed8983c	-0.42303646
76	0xbe14f7b7	-0.1454762
77	0x3c0e9343	0.008702102
78	0xbed60562	-0.41800982
79	0x3d864fed	0.065582134
80	0xbf259aaa	-0.64689124
81	0x3f9813cf	1.1881045
82	0xbfb8657d	-1.4405972
83	0xbf17c0e0	-0.5927868
84	0x3f5e8e91	0.8693629
85	0x3daab8ea	0.08336051
86	0xbf703ef1	-0.9384604
87	0xbe4bc53a	-0.19899455
88	0x3fa2e92f	1.2727412
89	0xbea69ecb	-0.32543024
90	0xbdd87637	-0.10569423
91	0x3f8ab667	1.0836915
92	0x3fa49167	1.2856873
93	0x3eb4609d	0.3522996
94	0xbedb2b68	-0.42806554
95	0x3f7ee17d	0.9956282
96	0x3e107e33	0.14110641
97	0xbe36ee60	-0.1786437
98	0xbde13035	-0.10995523
99	0x3e7807c6	0.24221715
100	0x3e9c1d59	0.3049114
101	0xbe9227f3	-0.28546104
102	0x3e8608ff	0.26178738
103	0xbe918944	-0.28425038
104	0xbeca6964	-0.39533532
105	0x3ecf343f	0.40469548
106	0x3cff454b	0.031160971
107	0xbe18e2c3	-0.14930253
108	0x3de7cf51	0.11318839
109	0xbf18354b	-0.5945632
110	0xbdecbb52	-0.11559166
111	0x3df71dd4	0.12066236
112	0xbee939b6	-0.45551842
113	0xbeb3f118	-0.35144877
114	0xbe5f1507	-0.21785365
115	0xbf31881b	-0.69348305
116	0x3f868641	1.0509721
117	0x3f7b526b	0.98172635
118	0xbebc7fe6	-0.3681633
119	0xbeafd497	-0.3434188
120	0x3f7fb429	0.9988428
121	0x3e0b4507	0.1360055
122	0xbf7d1cad	-0.9887188
123	0x3f060901	0.5235749
124	0xbf62fe23	-0.8866903
125	0x3e96803d	0.29394713
126	0x3f3cfd30	0.73823833
127	0xbe5785b8	-0.21047103
128	0x3f1d6015	0.61474735
129	0xbf1aff74	-0.6054604
130	0xbe7a6cc1	-0.24455549
131	0x3ea20ed6	0.31651944
132	0x3e36e174	0.17859441
133	0x3f1d4be4	0.61443925
134	0xbea55eb4	-0.32298815
135	0x3e124337	0.14283453
136	0xbe2fe71e	-0.17178008
137	0x3ef020fc	0.46900165
138	0xbc9db2a2	-0.019250218
139	0xbf377a8d	-0.7167137
140	0xbdab617e	-0.083682045
141	0xbf4e1103	-0.8049471
142	0xbee75b11	-0.45186666
143	0xbe3dc1f3	-0.18531017
144	0xbd6f7948	-0.058465272
145	0x3ef3d2c1	0.4762173
146	0x3e280d62	0.16411355
147	0x3d7005a3	0.058599126
148	0xbea0243e	-0.3127765
149	0x3e9c1b35	0.30489507
150	0xbdbf0d80	-0.09328747
151	0xbe6db97a	-0.23215285
152	0x3f214a1a	0.63003695
153	0x3e62cefd	0.22149272
154	0xbca99f9b	-0.020705989
155	0xbdab7bf7	-0.08373254
156	0x3f00d20c	0.50320506
157	0xbef6c29f	-0.4819536
158	0x3eab9d9b	0.3351868
159	0x3f094a9a	0.5362946
160	0x3eb57120	0.3543787
161	0xbfac8385	-1.3477637
162	0x3f9301f2	1.1484969
163	0xbf29e9d5	-0.66372424
164	0xbeca343e	-0.39492983
165	0xbd91e45d	-0.07123635
166	0x3fe2228e	1.7666795
167	0x3f738b22	0.95134175
168	0x3de65ccb	0.112481676
169	0x3de60d9a	0.11233063
170	0x3ebdb48b	0.37051806
171	0xbf8b85a8	-1.0900164
172	0xbf59ebc0	-0.8512535
173	0x3dd88291	0.105717786
174	0xbf23432a	-0.6377436
175	0xbebc6ee9	-0.36803368
176	0x3ebc9037	0.36828777
177	0xbf35ba0d	-0.70987016
178	0x3e138d17	0.1440929
179	0xbec7e891	-0.39044622
180	0xbf025596	-0.50911844
181	0xbee23402	-0.44180304
182	0x3f1ae877	0.60510963
183	0x3ef6fafb	0.48238358
184	0xbe192e1d	-0.14958997
185	0x3cb6fc02	0.022336964
186	0x3f247df7	0.6425471
187	0xbe8bafde	-0.27282614
188	0xbf26b00f	-0.65112394
189	0x3c8e587b	0.017376175
190	0x3f08282f	0.53186315
191	0x3e9facad	0.3118643
192	0x3e801116	0.25013036
193	0x3d9843a0	0.074347734
194	0xbeaa76ca	-0.33293754
195	0x3e88732c	0.2665037
196	0xbf003bed	-0.5009144
197	0x3ea4984b	0.3214744
198	0x3d3e0f5a	0.04640136
199	0x3dc339d1	0.09532512
200	0x3eb53ec8	0.3539946
201	0x3f057e1e	0.52145565
202	0xbd231c83	-0.039822113
203	0x3df96640	0.12177706
204	0x3dc1ac1c	0.094566554
205	0x3d8cbb25	0.068716325
206	0xbeca4e83	-0.39513025
207	0x3b0c8c85	0.002144606
208	0xbf47b51a	-0.78010714
209	0x3ea500d7	0.32227203
210	0xbe26f995	-0.16306145
211	0xbefb7406	-0.49111956
212	0x3f8e126f	1.1099375
213	0x3c9131ab	0.017723879
214	0x3e7bbf07	0.2458459
215	0xbe8a45fb	-0.27006516
216	0x3f47be0c	0.78024364
217	0xbf163c80	-0.58686066
218	0xbe471df4	-0.1944502
219	0x3f05fb0d	0.523362
220	0x3f3055e7	0.68881077
221	0x3f24f88b	0.64441746
222	0xbe8632d4	-0.26210654
223	0x3efd5761	0.49480727
224	0x3ea3c1f4	0.31983912
225	0xbeabe160	-0.33570385
226	0xbe4c85a8	-0.19972861
227	0xbe87f568	-0.26554418
228	0xbec92de6	-0.3929283
229	0x3cfeaad5	0.031087318
230	0x3f05c08d	0.52246934
231	0xbe90c2da	-0.2827366
232	0x3eed5e4c	0.46361005
233	0x3e426afd	0.18986125
234	0xbdac487f	-0.08412265
235	0x3e1696e9	0.14706005
236	0x3d8def75	0.069304384
237	0xbe21da0a	-0.15805832
238	0x3eab6504	0.33475506
239	0xbc9bd5d0	-0.019022852
240	0x3f42e82e	0.7613553
241	0xbdda6b46	-0.10664992
242	0x3ec672cf	0.38759467
243	0x3e8412a8	0.25795484
244	0xbc3b281b	-0.011423136
245	0x3eae7720	0.3407526
246	0xbe8584e2	-0.26077944
247	0x3e29e447	0.16590987
248	0xbe405ec1	-0.18786146
249	0x3ee822bc	0.45339
250	0x3f3896fb	0.7210538
251	0x3eb2f0d2	0.34949356
252	0x3e24d002	0.16094974
253	0x3ec9d672	0.3942142
254	0xbf1a8ba7	-0.6036934
255	0x3dac68dc	0.08418438

depthwise_3 f4 [1, 3, 3, 16]
0	0x3ce1db20	0.027570307
1	0x3e107282	0.14106181
2	0xbdabc901	-0.08387948
3	0xbd755469	-0.059894953
4	0xbe181c4f	-0.14854549
5	0xbe61b139	-0.22040261
6	0xbe7c3259	-0.24628581
7	0x3dcbf6aa	0.09959157
8	0x3ba2625a	0.004955572
9	0xbe5e9360	-0.21735907
10	0xbed86202	-0.42262274
11	0x3e271e19	0.16320075
12	0x3d9b5017	0.07583635
13	0xbe022898	-0.12710798
14	0x3da4313e	0.08017205
15	0xbe60da85	-0.21958359
16	0x3e981a74	0.29707682
17	0x3e7202fb	0.2363395
18	0x3d952054	0.07281557
19	0xbe40d01b	-0.18829386
20	0x3e917303	0.2840806
21	0x3e57f8df	0.2109103
22	0xbe32e6df	-0.17470883
23	0x3e0a37b4	0.13497812
24	0xbe104541	-0.14088918
25	0xbe659c75	-0.22422965
26	0x3e15c29e	0.14625022
27	0xbc8acd9a	-0.016943742
28	0x3dddb6b8	0.108258665
29	0x3e053afa	0.13010779
30	0x3e35762d	0.17720862
31	0xbe2d7e90	-0.16942811
32	0xbd3808d6	-0.0449303
33	0xbe97cf0a	-0.29650146
34	0xbd0f9fb3	-0.03506441
35	0xbccd8a26	-0.025090288
36	0xbe80f5ae	-0.2518744
37	0xbd54ce26	-0.05195441
38	0x3dcdb1e4	0.100436956
39	0x3c8e9594	0.017405309
40	0xbbf5d9bc	-0.0075027626
41	0xbeab6874	-0.3347813
42	0xbea0ff98	-0.31445003
43	0x3ea9aa6d	0.33137837
44	0x3e096f9b	0.1342148
45	0x3df5b5e1	0.11997581
46	0x3dc989d7	0.09840744
47	0xbe41aba3	-0.1891313
48	0x3e6c76e7	0.23092233
49	0xbe3101db	-0.17285864
50	0x3e14f50a	0.145466
51	0x3df48a70	0.11940467
52	0x3d94d00c	0.07266244
53	0xbe0010e5	-0.12506445
54	0x3da3b040	0.079926014
55	0xbec8542a	-0.39126712
56	0x3e420094	0.18945533
57	0xbe6bf731	-0.23043515
58	0x3e54f0d5	0.20794995
59	0x3dbf80a5	0.09350709
60	0x3dd074fe	0.101785645
61	0xbe3598fb	-0.17734139
62	0xbe473498	-0.19453657
63	0xbe6134a4	-0.21992737
64	0x3d899858	0.067185104
65	0x3e111536	0.14168248
66	0x3ddc95e3	0.10770776
67	0xbd9f429c	-0.077763766
68	0x3e35561b	0.17708628
69	0x3e963eaf	0.293447
70	0x3ddafebb	0.10693117
71	0x3d3bf204	0.0458851
72	0xbde1842d	-0.11011539
73	0x3e18dd9c	0.14928287
74	0x3ea7fee6	0.3281166
75	0x3e011f35	0.12609561
76	0xbe7012f0	-0.23444724
77	0x3e68d09e	0.22735831
78	0xbe340407	-0.17579661
79	0xbe7dc964	-0.24783856
80	0x3e441f10	0.19152474
81	0x3e4aa570	0.19789672
82	0xbe299d80	-0.16563988
83	0x3ae9612f	0.0017805452
84	0xbe1f8854	-0.15579349
85	0xbe7b3669	-0.24532475
86	0xbd7cdae1	-0.061732177
87	0xbda84bac	-0.08217558
88	0x3d75b85b	0.05999027
89	0xbdb2e199	-0.087344356
90	0xbd89f6b5	-0.06736509
91	0xbe79a71e	-0.24380156
92	0x3e01bf7b	0.126707
93	0xbea3c2f9	-0.3198469
94	0xbe15b2c9	-0.14618982
95	0x3e6ed72a	0.23324266
96	0x3e449dde	0.19200847
97	0xbdafa0ed	-0.08575616
98	0x3d8b725b	0.06808921
99	0x3c9a3621	0.018824639
100	0xbe89b2e9	-0.2689431
101	0x3e1bc4af	0.15211748
102	0xbe6c5321	-0.23078586
103	0x3e17c18f	0.1481993
104	0xbe8182fb	-0.25295243
105	0xbd1aafb2	-0.037765212
106	0xbec4c7cd	-0.38433686
107	0x3d91f94a	0.07127626
108	0x3e647267	0.22309266
109	0x3ebbf737	0.36712047
110	0xbc6db5aa	-0.014508644
111	0xbdc744ac	-0.09729895
112	0xbe53fd0e	-0.20702001
113	0xbd618d62	-0.055066474
114	0xbe245486	-0.16047868
115	0xbe880da8	-0.2657292
116	0xbe3980f4	-0.18115598
117	0xbdf90a0e	-0.12160121
118	0x3d253377	0.040332284
119	0x3e5a3e52	0.21312836
120	0xbe857f31	-0.26073602
121	0x3c88a01a	0.016677905
122	0xbe2be5e7	-0.1678692
123	0x3db3502a	0.087555245
124	0xbe26997d	-0.16269489
125	0xbe9aff77	-0.3027303
126	0x3e8364d6	0.2566287
127	0xbe3e8656	-0.18605933
128	0x3ea424f7	0.32059452
129	0x3e851c61	0.25998214
130	0x3e91f173	0.28504524
131	0x3d70a065	0.058746714
132	0xbe31e1f2	-0.17371348
133	0xbe088d45	-0.1333514
134	0xbe4428b8	-0.19156158
135	0xbe358b2e	-0.17728874
136	0xbd8cce12	-0.06875242
137	0xbe2d3fcc	-0.16918868
138	0xbe24ddd5	-0.16100247
139	0x3db70fd3	0.08938565
140	0x3e6b28cd	0.22964783
141	0xbc9b043a	-0.018922914
142	0x3e6b363b	0.22969906
143	0x3df52809	0.11970527

convolution_5 f4 [3, 1, 1, 16]
0	0xbff00adf	-1.8753318
1	0x40b5d96d	5.682791
2	0xc03bd542	-2.9348912
3	0xbeab0a07	-0.33406088
4	0x40ddfeb6	6.9373426
5	0xc160935b	-14.035975
6	0x407cf78a	3.9526086
7	0xc2209b6f	-40.15179
8	0x40b67420	5.7016754
9	0xc108ee9e	-8.558256
10	0x3fc0cbd3	1.5062202
11	0xc0e91d4c	-7.2848263
12	0x41aac167	21.344435
13	0x4206c154	33.688797
14	0xc012a5b6	-2.2913642
15	0x4089f8e6	4.311633
16	0x4133e412	11.243181
17	0x3f269b9f	0.6508121
18	0xc04c1b1e	-3.189155
19	0x3fe24e49	1.7680141
20	0x3f80ad4b	1.0052885
21	0xbed95a83	-0.42451867
22	0xc0eb212a	-7.3477983
23	0xbf24c067	-0.6435608
24	0x3dd6ac8a	0.10482128
25	0x3ff0ea5e	1.8821523
26	0x41590a18	13.564964
27	0xc096dc2b	-4.714376
28	0xc0cd7fa1	-6.4218297
29	0x3f134a47	0.57535213
30	0xc042442b	-3.0354106
31	0x3ec5a581	0.38602832
32	0xc0c046ba	-6.0086336
33	0xbf02c63f	-0.5108375
34	0xbca31f10	-0.019912273
35	0x3f0a30aa	0.53980505
36	0xc05c9bf5	-3.4470189
37	0x3ed97006	0.4246828
38	0x40af2bf4	5.4741154
39	0x3ebba313	0.36647853
40	0xc0a1ff48	-5.0624123
41	0x41306666	11.025
42	0xc20b7842	-34.86744
43	0x413abac9	11.670602
44	0xc050dcb8	-3.2634716
45	0xbf3fda13	-0.7494213
46	0xc120f5c2	-10.059999
47	0xbef23db7	-0.4731271

Add_2;depthwise_3;depthwise;Const_5 f4 [16]
0	0x3e3aeef8	0.18255222
1	0x3e7b35a4	0.24532181
2	0xbe96ede2	-0.29478365
3	0x3d923319	0.07138652
4	0x3e62c887	0.22146808
5	0x3dbdb109	0.092622824
6	0xbe17627e	-0.14783666
7	0xbe8bc9fb	-0.27302536
8	0xbcae1a43	-0.021252757
9	0x3e6b1ecb	0.22960965
10	0x3e72b597	0.23702084
11	0x3d483e43	0.048887502
12	0x3e4367f0	0.19082618
13	0xbe0c1fff	-0.1368408
14	0x3ea27b4b	0.3173469
15	0x3e90d66e	0.28288597

Add_4;depthwise_3;depthwise_1;Const_9 f4 [16]
0	0xbba3a4e9	-0.004994024
1	0xbe26d40b	-0.16291825
2	0xbe2d8f1d	-0.16949125
3	0xbda81ace	-0.082082376
4	0xbe855f24	-0.2604915
5	0xbdf0b7e4	-0.11753824
6	0x3d597452	0.053089447
7	0xbe556444	-0.2083903
8	0xbea7a48f	-0.32742736
9	0xbea1b5ce	-0.31584018
10	0xbe8fec43	-0.2810994
11	0xbe9344a3	-0.28763303
12	0x3e05bf18	0.13061178
13	0x3ea5885e	0.32330602
14	0xbe849c27	-0.25900385
15	0x3e65ef6c	0.22454613

Add_6;depthwise_3;depthwise_2;Const_13 f4 [16]
0	0xbe03dd43	-0.12877373
1	0x3d933d69	0.071894474
2	0x3e98b22c	0.29823434
3	0xbddf3c89	-0.10900218
4	0xbe3cacdb	-0.18425314
5	0x3d1835b0	0.037160575
6	0xbe023724	-0.12716347
7	0x3e7a977d	0.2447185
8	0x3e86a8c3	0.2630063
9	0xbb5b5336	-0.0033466346
10	0xbea3a31f	-0.3196039
11	0xbdb3040b	-0.087410055
12	0x3e82fd76	0.25584
13	0x3e495afb	0.19663613
14	0x3de4402b	0.111450516
15	0xbe7513e0	-0.23933363

Add_8;depthwise_3;Const_17 f4 [16]
0	0x3e88b923	0.26703748
1	0x3dec4306	0.11536221
2	0xbc9ee400	-0.019395828
3	0x3e99d473	0.30044898
4	0xbe3a633e	-0.1820192
5	0xbcd66279	-0.026170002
6	0x3d28247f	0.04105043
7	0xbdb8aa15	-0.090168156
8	0x3e7e5918	0.24838674
9	0xbe6905be	-0.22756097
10	0x3d846e9f	0.06466412
11	0x3e129a68	0.14316714
12	0xbe801948	-0.25019288
13	0xbe18c620	-0.14919329
14	0x3e2fe670	0.17177749
15	0x3dd09fd0	0.10186732
